[32m[09/20 09:59:16 d2.engine.defaults]: [39mModel:
OneFormer(
  (backbone): D2ConvNeXt(
    (downsample_layers): ModuleList(
      (0): Sequential(
        (0): Conv2d(3, 256, kernel_size=(4, 4), stride=(4, 4))
        (1): LayerNorm()
      )
      (1): Sequential(
        (0): LayerNorm()
        (1): Conv2d(256, 512, kernel_size=(2, 2), stride=(2, 2))
      )
      (2): Sequential(
        (0): LayerNorm()
        (1): Conv2d(512, 1024, kernel_size=(2, 2), stride=(2, 2))
      )
      (3): Sequential(
        (0): LayerNorm()
        (1): Conv2d(1024, 2048, kernel_size=(2, 2), stride=(2, 2))
      )
    )
    (stages): ModuleList(
      (0): Sequential(
        (0): Block(
          (dwconv): Conv2d(256, 256, kernel_size=(7, 7), stride=(1, 1), padding=(3, 3), groups=256)
          (norm): LayerNorm()
          (pwconv1): Linear(in_features=256, out_features=1024, bias=True)
          (act): GELU(approximate='none')
          (pwconv2): Linear(in_features=1024, out_features=256, bias=True)
          (drop_path): Identity()
        )
        (1): Block(
          (dwconv): Conv2d(256, 256, kernel_size=(7, 7), stride=(1, 1), padding=(3, 3), groups=256)
          (norm): LayerNorm()
          (pwconv1): Linear(in_features=256, out_features=1024, bias=True)
          (act): GELU(approximate='none')
          (pwconv2): Linear(in_features=1024, out_features=256, bias=True)
          (drop_path): DropPath()
        )
        (2): Block(
          (dwconv): Conv2d(256, 256, kernel_size=(7, 7), stride=(1, 1), padding=(3, 3), groups=256)
          (norm): LayerNorm()
          (pwconv1): Linear(in_features=256, out_features=1024, bias=True)
          (act): GELU(approximate='none')
          (pwconv2): Linear(in_features=1024, out_features=256, bias=True)
          (drop_path): DropPath()
        )
      )
      (1): Sequential(
        (0): Block(
          (dwconv): Conv2d(512, 512, kernel_size=(7, 7), stride=(1, 1), padding=(3, 3), groups=512)
          (norm): LayerNorm()
          (pwconv1): Linear(in_features=512, out_features=2048, bias=True)
          (act): GELU(approximate='none')
          (pwconv2): Linear(in_features=2048, out_features=512, bias=True)
          (drop_path): DropPath()
        )
        (1): Block(
          (dwconv): Conv2d(512, 512, kernel_size=(7, 7), stride=(1, 1), padding=(3, 3), groups=512)
          (norm): LayerNorm()
          (pwconv1): Linear(in_features=512, out_features=2048, bias=True)
          (act): GELU(approximate='none')
          (pwconv2): Linear(in_features=2048, out_features=512, bias=True)
          (drop_path): DropPath()
        )
        (2): Block(
          (dwconv): Conv2d(512, 512, kernel_size=(7, 7), stride=(1, 1), padding=(3, 3), groups=512)
          (norm): LayerNorm()
          (pwconv1): Linear(in_features=512, out_features=2048, bias=True)
          (act): GELU(approximate='none')
          (pwconv2): Linear(in_features=2048, out_features=512, bias=True)
          (drop_path): DropPath()
        )
      )
      (2): Sequential(
        (0): Block(
          (dwconv): Conv2d(1024, 1024, kernel_size=(7, 7), stride=(1, 1), padding=(3, 3), groups=1024)
          (norm): LayerNorm()
          (pwconv1): Linear(in_features=1024, out_features=4096, bias=True)
          (act): GELU(approximate='none')
          (pwconv2): Linear(in_features=4096, out_features=1024, bias=True)
          (drop_path): DropPath()
        )
        (1): Block(
          (dwconv): Conv2d(1024, 1024, kernel_size=(7, 7), stride=(1, 1), padding=(3, 3), groups=1024)
          (norm): LayerNorm()
          (pwconv1): Linear(in_features=1024, out_features=4096, bias=True)
          (act): GELU(approximate='none')
          (pwconv2): Linear(in_features=4096, out_features=1024, bias=True)
          (drop_path): DropPath()
        )
        (2): Block(
          (dwconv): Conv2d(1024, 1024, kernel_size=(7, 7), stride=(1, 1), padding=(3, 3), groups=1024)
          (norm): LayerNorm()
          (pwconv1): Linear(in_features=1024, out_features=4096, bias=True)
          (act): GELU(approximate='none')
          (pwconv2): Linear(in_features=4096, out_features=1024, bias=True)
          (drop_path): DropPath()
        )
        (3): Block(
          (dwconv): Conv2d(1024, 1024, kernel_size=(7, 7), stride=(1, 1), padding=(3, 3), groups=1024)
          (norm): LayerNorm()
          (pwconv1): Linear(in_features=1024, out_features=4096, bias=True)
          (act): GELU(approximate='none')
          (pwconv2): Linear(in_features=4096, out_features=1024, bias=True)
          (drop_path): DropPath()
        )
        (4): Block(
          (dwconv): Conv2d(1024, 1024, kernel_size=(7, 7), stride=(1, 1), padding=(3, 3), groups=1024)
          (norm): LayerNorm()
          (pwconv1): Linear(in_features=1024, out_features=4096, bias=True)
          (act): GELU(approximate='none')
          (pwconv2): Linear(in_features=4096, out_features=1024, bias=True)
          (drop_path): DropPath()
        )
        (5): Block(
          (dwconv): Conv2d(1024, 1024, kernel_size=(7, 7), stride=(1, 1), padding=(3, 3), groups=1024)
          (norm): LayerNorm()
          (pwconv1): Linear(in_features=1024, out_features=4096, bias=True)
          (act): GELU(approximate='none')
          (pwconv2): Linear(in_features=4096, out_features=1024, bias=True)
          (drop_path): DropPath()
        )
        (6): Block(
          (dwconv): Conv2d(1024, 1024, kernel_size=(7, 7), stride=(1, 1), padding=(3, 3), groups=1024)
          (norm): LayerNorm()
          (pwconv1): Linear(in_features=1024, out_features=4096, bias=True)
          (act): GELU(approximate='none')
          (pwconv2): Linear(in_features=4096, out_features=1024, bias=True)
          (drop_path): DropPath()
        )
        (7): Block(
          (dwconv): Conv2d(1024, 1024, kernel_size=(7, 7), stride=(1, 1), padding=(3, 3), groups=1024)
          (norm): LayerNorm()
          (pwconv1): Linear(in_features=1024, out_features=4096, bias=True)
          (act): GELU(approximate='none')
          (pwconv2): Linear(in_features=4096, out_features=1024, bias=True)
          (drop_path): DropPath()
        )
        (8): Block(
          (dwconv): Conv2d(1024, 1024, kernel_size=(7, 7), stride=(1, 1), padding=(3, 3), groups=1024)
          (norm): LayerNorm()
          (pwconv1): Linear(in_features=1024, out_features=4096, bias=True)
          (act): GELU(approximate='none')
          (pwconv2): Linear(in_features=4096, out_features=1024, bias=True)
          (drop_path): DropPath()
        )
        (9): Block(
          (dwconv): Conv2d(1024, 1024, kernel_size=(7, 7), stride=(1, 1), padding=(3, 3), groups=1024)
          (norm): LayerNorm()
          (pwconv1): Linear(in_features=1024, out_features=4096, bias=True)
          (act): GELU(approximate='none')
          (pwconv2): Linear(in_features=4096, out_features=1024, bias=True)
          (drop_path): DropPath()
        )
        (10): Block(
          (dwconv): Conv2d(1024, 1024, kernel_size=(7, 7), stride=(1, 1), padding=(3, 3), groups=1024)
          (norm): LayerNorm()
          (pwconv1): Linear(in_features=1024, out_features=4096, bias=True)
          (act): GELU(approximate='none')
          (pwconv2): Linear(in_features=4096, out_features=1024, bias=True)
          (drop_path): DropPath()
        )
        (11): Block(
          (dwconv): Conv2d(1024, 1024, kernel_size=(7, 7), stride=(1, 1), padding=(3, 3), groups=1024)
          (norm): LayerNorm()
          (pwconv1): Linear(in_features=1024, out_features=4096, bias=True)
          (act): GELU(approximate='none')
          (pwconv2): Linear(in_features=4096, out_features=1024, bias=True)
          (drop_path): DropPath()
        )
        (12): Block(
          (dwconv): Conv2d(1024, 1024, kernel_size=(7, 7), stride=(1, 1), padding=(3, 3), groups=1024)
          (norm): LayerNorm()
          (pwconv1): Linear(in_features=1024, out_features=4096, bias=True)
          (act): GELU(approximate='none')
          (pwconv2): Linear(in_features=4096, out_features=1024, bias=True)
          (drop_path): DropPath()
        )
        (13): Block(
          (dwconv): Conv2d(1024, 1024, kernel_size=(7, 7), stride=(1, 1), padding=(3, 3), groups=1024)
          (norm): LayerNorm()
          (pwconv1): Linear(in_features=1024, out_features=4096, bias=True)
          (act): GELU(approximate='none')
          (pwconv2): Linear(in_features=4096, out_features=1024, bias=True)
          (drop_path): DropPath()
        )
        (14): Block(
          (dwconv): Conv2d(1024, 1024, kernel_size=(7, 7), stride=(1, 1), padding=(3, 3), groups=1024)
          (norm): LayerNorm()
          (pwconv1): Linear(in_features=1024, out_features=4096, bias=True)
          (act): GELU(approximate='none')
          (pwconv2): Linear(in_features=4096, out_features=1024, bias=True)
          (drop_path): DropPath()
        )
        (15): Block(
          (dwconv): Conv2d(1024, 1024, kernel_size=(7, 7), stride=(1, 1), padding=(3, 3), groups=1024)
          (norm): LayerNorm()
          (pwconv1): Linear(in_features=1024, out_features=4096, bias=True)
          (act): GELU(approximate='none')
          (pwconv2): Linear(in_features=4096, out_features=1024, bias=True)
          (drop_path): DropPath()
        )
        (16): Block(
          (dwconv): Conv2d(1024, 1024, kernel_size=(7, 7), stride=(1, 1), padding=(3, 3), groups=1024)
          (norm): LayerNorm()
          (pwconv1): Linear(in_features=1024, out_features=4096, bias=True)
          (act): GELU(approximate='none')
          (pwconv2): Linear(in_features=4096, out_features=1024, bias=True)
          (drop_path): DropPath()
        )
        (17): Block(
          (dwconv): Conv2d(1024, 1024, kernel_size=(7, 7), stride=(1, 1), padding=(3, 3), groups=1024)
          (norm): LayerNorm()
          (pwconv1): Linear(in_features=1024, out_features=4096, bias=True)
          (act): GELU(approximate='none')
          (pwconv2): Linear(in_features=4096, out_features=1024, bias=True)
          (drop_path): DropPath()
        )
        (18): Block(
          (dwconv): Conv2d(1024, 1024, kernel_size=(7, 7), stride=(1, 1), padding=(3, 3), groups=1024)
          (norm): LayerNorm()
          (pwconv1): Linear(in_features=1024, out_features=4096, bias=True)
          (act): GELU(approximate='none')
          (pwconv2): Linear(in_features=4096, out_features=1024, bias=True)
          (drop_path): DropPath()
        )
        (19): Block(
          (dwconv): Conv2d(1024, 1024, kernel_size=(7, 7), stride=(1, 1), padding=(3, 3), groups=1024)
          (norm): LayerNorm()
          (pwconv1): Linear(in_features=1024, out_features=4096, bias=True)
          (act): GELU(approximate='none')
          (pwconv2): Linear(in_features=4096, out_features=1024, bias=True)
          (drop_path): DropPath()
        )
        (20): Block(
          (dwconv): Conv2d(1024, 1024, kernel_size=(7, 7), stride=(1, 1), padding=(3, 3), groups=1024)
          (norm): LayerNorm()
          (pwconv1): Linear(in_features=1024, out_features=4096, bias=True)
          (act): GELU(approximate='none')
          (pwconv2): Linear(in_features=4096, out_features=1024, bias=True)
          (drop_path): DropPath()
        )
        (21): Block(
          (dwconv): Conv2d(1024, 1024, kernel_size=(7, 7), stride=(1, 1), padding=(3, 3), groups=1024)
          (norm): LayerNorm()
          (pwconv1): Linear(in_features=1024, out_features=4096, bias=True)
          (act): GELU(approximate='none')
          (pwconv2): Linear(in_features=4096, out_features=1024, bias=True)
          (drop_path): DropPath()
        )
        (22): Block(
          (dwconv): Conv2d(1024, 1024, kernel_size=(7, 7), stride=(1, 1), padding=(3, 3), groups=1024)
          (norm): LayerNorm()
          (pwconv1): Linear(in_features=1024, out_features=4096, bias=True)
          (act): GELU(approximate='none')
          (pwconv2): Linear(in_features=4096, out_features=1024, bias=True)
          (drop_path): DropPath()
        )
        (23): Block(
          (dwconv): Conv2d(1024, 1024, kernel_size=(7, 7), stride=(1, 1), padding=(3, 3), groups=1024)
          (norm): LayerNorm()
          (pwconv1): Linear(in_features=1024, out_features=4096, bias=True)
          (act): GELU(approximate='none')
          (pwconv2): Linear(in_features=4096, out_features=1024, bias=True)
          (drop_path): DropPath()
        )
        (24): Block(
          (dwconv): Conv2d(1024, 1024, kernel_size=(7, 7), stride=(1, 1), padding=(3, 3), groups=1024)
          (norm): LayerNorm()
          (pwconv1): Linear(in_features=1024, out_features=4096, bias=True)
          (act): GELU(approximate='none')
          (pwconv2): Linear(in_features=4096, out_features=1024, bias=True)
          (drop_path): DropPath()
        )
        (25): Block(
          (dwconv): Conv2d(1024, 1024, kernel_size=(7, 7), stride=(1, 1), padding=(3, 3), groups=1024)
          (norm): LayerNorm()
          (pwconv1): Linear(in_features=1024, out_features=4096, bias=True)
          (act): GELU(approximate='none')
          (pwconv2): Linear(in_features=4096, out_features=1024, bias=True)
          (drop_path): DropPath()
        )
        (26): Block(
          (dwconv): Conv2d(1024, 1024, kernel_size=(7, 7), stride=(1, 1), padding=(3, 3), groups=1024)
          (norm): LayerNorm()
          (pwconv1): Linear(in_features=1024, out_features=4096, bias=True)
          (act): GELU(approximate='none')
          (pwconv2): Linear(in_features=4096, out_features=1024, bias=True)
          (drop_path): DropPath()
        )
      )
      (3): Sequential(
        (0): Block(
          (dwconv): Conv2d(2048, 2048, kernel_size=(7, 7), stride=(1, 1), padding=(3, 3), groups=2048)
          (norm): LayerNorm()
          (pwconv1): Linear(in_features=2048, out_features=8192, bias=True)
          (act): GELU(approximate='none')
          (pwconv2): Linear(in_features=8192, out_features=2048, bias=True)
          (drop_path): DropPath()
        )
        (1): Block(
          (dwconv): Conv2d(2048, 2048, kernel_size=(7, 7), stride=(1, 1), padding=(3, 3), groups=2048)
          (norm): LayerNorm()
          (pwconv1): Linear(in_features=2048, out_features=8192, bias=True)
          (act): GELU(approximate='none')
          (pwconv2): Linear(in_features=8192, out_features=2048, bias=True)
          (drop_path): DropPath()
        )
        (2): Block(
          (dwconv): Conv2d(2048, 2048, kernel_size=(7, 7), stride=(1, 1), padding=(3, 3), groups=2048)
          (norm): LayerNorm()
          (pwconv1): Linear(in_features=2048, out_features=8192, bias=True)
          (act): GELU(approximate='none')
          (pwconv2): Linear(in_features=8192, out_features=2048, bias=True)
          (drop_path): DropPath()
        )
      )
    )
    (norm0): LayerNorm()
    (norm1): LayerNorm()
    (norm2): LayerNorm()
    (norm3): LayerNorm()
  )
  (sem_seg_head): OneFormerHead(
    (pixel_decoder): MSDeformAttnPixelDecoder(
      (input_proj): ModuleList(
        (0): Sequential(
          (0): Conv2d(2048, 256, kernel_size=(1, 1), stride=(1, 1))
          (1): GroupNorm(32, 256, eps=1e-05, affine=True)
        )
        (1): Sequential(
          (0): Conv2d(1024, 256, kernel_size=(1, 1), stride=(1, 1))
          (1): GroupNorm(32, 256, eps=1e-05, affine=True)
        )
        (2): Sequential(
          (0): Conv2d(512, 256, kernel_size=(1, 1), stride=(1, 1))
          (1): GroupNorm(32, 256, eps=1e-05, affine=True)
        )
      )
      (transformer): MSDeformAttnTransformerEncoderOnly(
        (encoder): MSDeformAttnTransformerEncoder(
          (layers): ModuleList(
            (0-5): 6 x MSDeformAttnTransformerEncoderLayer(
              (self_attn): MSDeformAttn(
                (sampling_offsets): Linear(in_features=256, out_features=192, bias=True)
                (attention_weights): Linear(in_features=256, out_features=96, bias=True)
                (value_proj): Linear(in_features=256, out_features=256, bias=True)
                (output_proj): Linear(in_features=256, out_features=256, bias=True)
              )
              (dropout1): Dropout(p=0.1, inplace=False)
              (norm1): LayerNorm((256,), eps=1e-05, elementwise_affine=True)
              (linear1): Linear(in_features=256, out_features=1024, bias=True)
              (dropout2): Dropout(p=0.1, inplace=False)
              (linear2): Linear(in_features=1024, out_features=256, bias=True)
              (dropout3): Dropout(p=0.1, inplace=False)
              (norm2): LayerNorm((256,), eps=1e-05, elementwise_affine=True)
            )
          )
        )
      )
      (pe_layer): Positional encoding PositionEmbeddingSine
          num_pos_feats: 128
          temperature: 10000
          normalize: True
          scale: 6.283185307179586
      (mask_features): Conv2d(256, 256, kernel_size=(1, 1), stride=(1, 1))
      (adapter_1): Conv2d(
        256, 256, kernel_size=(1, 1), stride=(1, 1), bias=False
        (norm): GroupNorm(32, 256, eps=1e-05, affine=True)
      )
      (layer_1): Conv2d(
        256, 256, kernel_size=(3, 3), stride=(1, 1), padding=(1, 1), bias=False
        (norm): GroupNorm(32, 256, eps=1e-05, affine=True)
      )
    )
    (predictor): ContrastiveMultiScaleMaskedTransformerDecoder(
      (pe_layer): Positional encoding PositionEmbeddingSine
          num_pos_feats: 128
          temperature: 10000
          normalize: True
          scale: 6.283185307179586
      (class_transformer): Transformer(
        (encoder): TransformerEncoder(
          (layers): ModuleList()
        )
        (decoder): TransformerDecoder(
          (layers): ModuleList(
            (0-1): 2 x TransformerDecoderLayer(
              (self_attn): MultiheadAttention(
                (out_proj): NonDynamicallyQuantizableLinear(in_features=256, out_features=256, bias=True)
              )
              (multihead_attn): MultiheadAttention(
                (out_proj): NonDynamicallyQuantizableLinear(in_features=256, out_features=256, bias=True)
              )
              (linear1): Linear(in_features=256, out_features=2048, bias=True)
              (dropout): Dropout(p=0.1, inplace=False)
              (linear2): Linear(in_features=2048, out_features=256, bias=True)
              (norm1): LayerNorm((256,), eps=1e-05, elementwise_affine=True)
              (norm2): LayerNorm((256,), eps=1e-05, elementwise_affine=True)
              (norm3): LayerNorm((256,), eps=1e-05, elementwise_affine=True)
              (dropout1): Dropout(p=0.1, inplace=False)
              (dropout2): Dropout(p=0.1, inplace=False)
              (dropout3): Dropout(p=0.1, inplace=False)
            )
          )
          (norm): LayerNorm((256,), eps=1e-05, elementwise_affine=True)
        )
      )
      (transformer_self_attention_layers): ModuleList(
        (0-8): 9 x SelfAttentionLayer(
          (self_attn): MultiheadAttention(
            (out_proj): NonDynamicallyQuantizableLinear(in_features=256, out_features=256, bias=True)
          )
          (norm): LayerNorm((256,), eps=1e-05, elementwise_affine=True)
          (dropout): Dropout(p=0.0, inplace=False)
        )
      )
      (transformer_cross_attention_layers): ModuleList(
        (0-8): 9 x CrossAttentionLayer(
          (multihead_attn): MultiheadAttention(
            (out_proj): NonDynamicallyQuantizableLinear(in_features=256, out_features=256, bias=True)
          )
          (norm): LayerNorm((256,), eps=1e-05, elementwise_affine=True)
          (dropout): Dropout(p=0.0, inplace=False)
        )
      )
      (transformer_ffn_layers): ModuleList(
        (0-8): 9 x FFNLayer(
          (linear1): Linear(in_features=256, out_features=2048, bias=True)
          (dropout): Dropout(p=0.0, inplace=False)
          (linear2): Linear(in_features=2048, out_features=256, bias=True)
          (norm): LayerNorm((256,), eps=1e-05, elementwise_affine=True)
        )
      )
      (decoder_norm): LayerNorm((256,), eps=1e-05, elementwise_affine=True)
      (query_embed): Embedding(250, 256)
      (level_embed): Embedding(3, 256)
      (input_proj): ModuleList(
        (0-2): 3 x Sequential()
      )
      (class_input_proj): Conv2d(256, 256, kernel_size=(1, 1), stride=(1, 1))
      (class_embed): Linear(in_features=256, out_features=20, bias=True)
      (mask_embed): MLP(
        (layers): ModuleList(
          (0-2): 3 x Linear(in_features=256, out_features=256, bias=True)
        )
      )
    )
  )
  (task_mlp): MLP(
    (layers): ModuleList(
      (0): Linear(in_features=77, out_features=256, bias=True)
      (1): Linear(in_features=256, out_features=256, bias=True)
    )
  )
  (text_encoder): TextTransformer(
    (transformer): Transformer(
      (resblocks): Sequential(
        (0): ResidualAttentionBlock(
          (attn): MultiheadAttention(
            (out_proj): NonDynamicallyQuantizableLinear(in_features=256, out_features=256, bias=True)
          )
          (ln_1): LayerNorm((256,), eps=1e-05, elementwise_affine=True)
          (mlp): Sequential(
            (c_fc): Linear(in_features=256, out_features=1024, bias=True)
            (gelu): QuickGELU()
            (c_proj): Linear(in_features=1024, out_features=256, bias=True)
          )
          (ln_2): LayerNorm((256,), eps=1e-05, elementwise_affine=True)
        )
        (1): ResidualAttentionBlock(
          (attn): MultiheadAttention(
            (out_proj): NonDynamicallyQuantizableLinear(in_features=256, out_features=256, bias=True)
          )
          (ln_1): LayerNorm((256,), eps=1e-05, elementwise_affine=True)
          (mlp): Sequential(
            (c_fc): Linear(in_features=256, out_features=1024, bias=True)
            (gelu): QuickGELU()
            (c_proj): Linear(in_features=1024, out_features=256, bias=True)
          )
          (ln_2): LayerNorm((256,), eps=1e-05, elementwise_affine=True)
        )
        (2): ResidualAttentionBlock(
          (attn): MultiheadAttention(
            (out_proj): NonDynamicallyQuantizableLinear(in_features=256, out_features=256, bias=True)
          )
          (ln_1): LayerNorm((256,), eps=1e-05, elementwise_affine=True)
          (mlp): Sequential(
            (c_fc): Linear(in_features=256, out_features=1024, bias=True)
            (gelu): QuickGELU()
            (c_proj): Linear(in_features=1024, out_features=256, bias=True)
          )
          (ln_2): LayerNorm((256,), eps=1e-05, elementwise_affine=True)
        )
        (3): ResidualAttentionBlock(
          (attn): MultiheadAttention(
            (out_proj): NonDynamicallyQuantizableLinear(in_features=256, out_features=256, bias=True)
          )
          (ln_1): LayerNorm((256,), eps=1e-05, elementwise_affine=True)
          (mlp): Sequential(
            (c_fc): Linear(in_features=256, out_features=1024, bias=True)
            (gelu): QuickGELU()
            (c_proj): Linear(in_features=1024, out_features=256, bias=True)
          )
          (ln_2): LayerNorm((256,), eps=1e-05, elementwise_affine=True)
        )
        (4): ResidualAttentionBlock(
          (attn): MultiheadAttention(
            (out_proj): NonDynamicallyQuantizableLinear(in_features=256, out_features=256, bias=True)
          )
          (ln_1): LayerNorm((256,), eps=1e-05, elementwise_affine=True)
          (mlp): Sequential(
            (c_fc): Linear(in_features=256, out_features=1024, bias=True)
            (gelu): QuickGELU()
            (c_proj): Linear(in_features=1024, out_features=256, bias=True)
          )
          (ln_2): LayerNorm((256,), eps=1e-05, elementwise_affine=True)
        )
        (5): ResidualAttentionBlock(
          (attn): MultiheadAttention(
            (out_proj): NonDynamicallyQuantizableLinear(in_features=256, out_features=256, bias=True)
          )
          (ln_1): LayerNorm((256,), eps=1e-05, elementwise_affine=True)
          (mlp): Sequential(
            (c_fc): Linear(in_features=256, out_features=1024, bias=True)
            (gelu): QuickGELU()
            (c_proj): Linear(in_features=1024, out_features=256, bias=True)
          )
          (ln_2): LayerNorm((256,), eps=1e-05, elementwise_affine=True)
        )
      )
    )
    (ln_final): LayerNorm((256,), eps=1e-05, elementwise_affine=True)
    (token_embedding): Embedding(49408, 256)
  )
  (text_projector): MLP(
    (layers): ModuleList(
      (0-1): 2 x Linear(in_features=256, out_features=256, bias=True)
    )
  )
  (prompt_ctx): Embedding(16, 256)
  (criterion): Criterion SetCriterion
      matcher: Matcher HungarianMatcher
          cost_class: 2.0
          cost_mask: 5.0
          cost_dice: 5.0
      losses: ['labels', 'masks', 'contrastive']
      weight_dict: {'loss_ce': 2.0, 'loss_mask': 5.0, 'loss_dice': 5.0, 'loss_contrastive': 0.5, 'loss_ce_0': 2.0, 'loss_mask_0': 5.0, 'loss_dice_0': 5.0, 'loss_contrastive_0': 0.5, 'loss_
…
